hey_yaml.tflite (tflite, 206748 bytes, 9 tensors)

Const_1 f4 [32]
00000000: 0bd9 a93c 64cc 263c 23b4 b23c 4c3d 7b3c
00000010: 6820 9c3b 83b2 49bb 6a68 2d3c 2f0a 86bc
00000020: f495 dc3c 3280 42bc 0aeb 563c 6a4e 143c
00000030: d05f 093c 8421 6abc f4e8 c83c 1437 103a
00000040: c41b 84bc e35d 91bc 6a6a 123c 28b1 c73c
00000050: 24da d5bb dac6 f8ba 334c 3b3a e4a2 9abc
00000060: efd2 7abc 3193 843c 02b8 68ba 2b73 9dbc
00000070: a24c f6bb 4fa8 b8bc 68bb 94bc a845 ce3c
0.020733377 0.010180566 0.021814412 0.0153344385 0.0047646053 -0.0030776567 0.010583976 -0.016362278
0.026926972 -0.011871384 0.013117561 0.0090518985 0.00838466 -0.014290217 0.024525143 0.00055013713
-0.016126521 -0.017744964 0.008936504 0.024376467 -0.0065262485 -0.0018980161 0.00071448385 -0.0188765
-0.01530908 0.016183468 -0.0008877517 -0.019219955 -0.0075164596 -0.022541193 -0.018155769 0.025179699

Const_2 f4 [32]
00000000: b684 783f ed35 803f 1bdf 783f df51 7b3f
00000010: a505 803f 8354 7a3f 4f31 7b3f d6f3 7e3f
00000020: a604 7e3f cbfc 773f 671c 7c3f 8e1f 803f
00000030: 6497 813f f240 7a3f 40ac 743f f319 7c3f
00000040: 8b36 793f 08f2 7d3f b4e6 7a3f 1f07 7d3f
00000050: 3893 7e3f 603f 883f 0a60 7d3f ec95 773f
00000060: 084a 7c3f 2f3c 7b3f ac91 7d3f 4867 7e3f
00000070: c250 7b3f 5c6d 813f f3b4 7a3f f0db 7e3f
0.970775 1.0016457 0.9721543 0.981718 1.0001723 0.97785205 0.98122114 0.99590814
0.9922584 0.96870106 0.9848084 1.000963 1.0124326 0.9775535 0.9557533 0.98477095
0.9734885 0.99197435 0.98008275 0.9883899 0.9944339 1.064434 0.9897467 0.9671314
0.9855046 0.9813871 0.990504 0.99376345 0.981701 1.0111499 0.97932357 0.9955435

Const_3 f4 [32]
00000000: 7e4a d6bc 9398 d03b a006 363c 94bc c8bc
00000010: b0e9 94bc e4d6 01bd c874 f8bc 01ac a6bc
00000020: 488d f83a 8e4f 9ebb 1e9e cdbc 94f2 973b
00000030: 72d5 51bc b827 90bb c336 0abb 6361 c5bc
00000040: 5a85 2ebd 0384 c0bc e352 2bbd 853c 9dbc
00000050: cab0 02bc f4e1 9bba cb7d 0cbd 9676 00bd
00000060: 1e6c d3bc a6b4 ecbc 9861 cfbc ae4e 94bc
00000070: 8319 c0bc 428c 913c c3ee 21bd 5758 be3b
-0.026158568 0.0063658445 0.011109978 -0.024503984 -0.018177837 -0.031699076 -0.030329123 -0.02034569
0.0018963004 -0.004831261 -0.02509981 0.004637072 -0.012807237 -0.004399266 -0.002108977 -0.02409429
-0.042607643 -0.023500448 -0.041827094 -0.019193897 -0.00797672 -0.0011892901 -0.034299653 -0.031363092
-0.02580839 -0.028894734 -0.025315091 -0.018103924 -0.023449665 0.017767075 -0.03953434 0.005808871

Const_5 f4 [32]
00000000: e89f f93c 863f 7f3d 6485 09bd 9d02 893d
00000010: 204c 37bd 50da 8f3c 78df 83bc 5ba5 42be
00000020: 0cc1 113e 0f30 39bd 4342 933d ecbc 09bd
00000030: 4091 abbc 9450 85bd ce52 723c ca90 92bd
00000040: 039f dd37 6c1e 08be 5f3a 34be bb31 663a
00000050: c868 abb9 1eed b0bc 0a33 a63c b07b 003d
00000060: 7e6c 2c3d 3a82 01be 6b6a dbbc 67be b0bb
00000070: e753 d33d f831 05be db0f f8bd 0014 7fbd
0.030471757 0.06231644 -0.033574477 0.066899516 -0.044750333 0.017560154 -0.01609777 -0.1900839
0.14233798 -0.045211848 0.07190373 -0.033627436 -0.020943284 -0.0650951 0.01479025 -0.071565226
2.6419299e-05 -0.13292855 -0.17600392 0.0008781214 -0.0003269373 -0.021597441 0.02028801 0.031367958
0.042095654 -0.12647334 -0.026784142 -0.0053937915 0.103187375 -0.13007343 -0.12112399 -0.062274933

Const_6 f4 [32]
00000000: 3c12 813f ec4f a13f 742e 813f ec42 843f
00000010: ac12 843f 33eb a63f 16bb 833f 7677 7c3f
00000020: 5ad9 843f 6255 b43f 8c77 863f 0210 8a3f
00000030: 90e4 7b3f b27d 893f c630 a03f 107f 873f
00000040: 7243 843f bff2 7f3f 2133 803f b338 783f
00000050: 03f5 9f3f 60ac 823f 1fab a23f a92d 893f
00000060: 2c09 833f 6cbf 7e3f 26a7 823f e4d3 843f
00000070: bc1f 7f3f 3e55 873f dea1 9e3f 155e 813f
1.008369 1.2602515 1.0092301 1.0332923 1.0318198 1.3040527 1.0291469 0.9861978
1.037883 1.4088557 1.0505233 1.0786135 0.98395634 1.0741484 1.2514884 1.0585651
1.0333083 0.99979776 1.0015603 0.96961516 1.2496647 1.0208855 1.2708472 1.0717059
1.0237174 0.99510837 1.020726 1.0377164 0.996578 1.0572889 1.2393148 1.0106837

Const_7 f4 [32]
00000000: 3487 743c 8ae5 863e 8ce6 c1bb 147d a03c
00000010: a4e7 9e3c 565f 913e 681f c73c 0a57 9cbc
00000020: 28f4 9b3c acc5 a63e 1478 f73c ae06 f13c
00000030: 2799 d5bc 7eff 813d 8fdf 813e 0c9d 253d
00000040: 4be1 0f3d e7a1 3f3b 543d 99bb 182e d6bc
00000050: 5344 803e 2456 523c e4e7 803e 5c83 7d3d
00000060: 5c0c 1f3d 2cdf cebb f7b8 b33a 8b08 d63c
00000070: caf8 09bc ff71 5f3d 9e87 823e b03a 82bb
0.014924813 0.26347 -0.005917376 0.019590892 0.019397564 0.28393048 0.024306968 -0.019084472
0.019037321 0.32572687 0.030208625 0.02942213 -0.026074005 0.063475594 0.25365874 0.040432975
0.035126965 0.0029240788 -0.0046765003 -0.026145026 0.25052127 0.01283792 0.25176919 0.061892852
0.038830146 -0.0063132253 0.001371174 0.02612712 -0.008421132 0.054552075 0.25494093 -0.0039742813

MatMul f4 [32, 1536]
00000000: bff1 f5bc 86fa 1f3b dec5 d53b c6d0 88bc
00000010: 0ccd a8bc ca6d 94bb 22cc bd3c 1efb 51bc
00000020: ab22 f23a e057 e0bb b04e 84bc 3431 b3bb
00000030: 7279 3e3c a416 ecbb facd 7bbb 3211 e93c
00000040: 9b5f 8f3c 2f93 1fbd 541c adbc a0d0 a8bc
00000050: 66f7 33bc 9e4f cb3c 8099 8d3c 9fe0 493c
00000060: 1525 11bd 9d3c 82bc 7153 9aba 2c4c 2ebc
00000070: 4ccb ae3a 174a 423c db90 413c f6ca a2bc
00000080: a121 9f3c 877b 2b3c 9eca 673b ea3e a13b
00000090: 40a9 18bb c0f8 da3c 643c 073c 16e9 64bc
000000a0: b8f2 593c 1291 a4bb 4833 0c3c 34f9 c13b
000000b0: 22cb 813b 08ba 09b8 fe74 a5bc 88fe 0ebc
000000c0: 6f46 d4bc c474 17bc 6840 a53c dc00 c9bc
000000d0: dac7 9cbc d1a2 92bc 2786 88bc 3a4c 953c
000000e0: 317e 273c fb5c 5ebc ae4d 91bc 96fb 823b
000000f0: 8639 e33b 4ac6 9f3b 9d04 9ebb fb6e 68bc
00000100: 4369 29bc b81e 1f3b 0852 bdbc 9328 313c
00000110: 6031 573c 9ea3 baba fc16 40bb ab1b 9d3c
00000120: 4698 9dbc f6fd 9e3c 960e 85bb 368c cf3c
00000130: e0dd afbc 4871 a13c dba0 45bc 7a80 853b
00000140: d609 e23b 45f7 89bc f769 2fbb 0387 4c3c
00000150: ab8c e53a 1f9b dc3c 003f 78bc 77f6 c0bb
00000160: 7274 adbc 66ed f5ba db43 c63c 68ef 183c
00000170: ea15 b23c 24b2 093c c792 38bc b63f b03c
00000180: a899 503b 3b71 e3bc d3ad 62bc 4f8c a53c
00000190: b646 283c d282 d8bb 7908 233c 6ab0 dd3c
000001a0: 84fa 523c 1e83 8ebc 903b af3c 5ecc d2bc
000001b0: 036d 063c 905c 0f3c 368f 3c3a 5ac9 ba3a
000001c0: 9bc2 043d 7e78 3c3b d42b 23bb 7fdb f03c
000001d0: 3041 cdbc 60ca 0739 685b e43b 4dff 933b
000001e0: cf1a 9cbc 4438 8abc 6e67 883c 9a0c 8e3c
000001f0: 5fbe 31bc 9a7a 06bc 564c f83a c957 8cbc
00000200: 3e4a d6bc ef0d b1bc d31e 35bc 56e3 38ba
00000210: ab49 07bb 2c8a b43c 98ed 493b 0ad5 c6bc
00000220: b092 093a 2b0a c3bb 2fbd 10bb 8254 603c
00000230: bbe5 06bc f1c3 25bc 6a3b 1c3b 08bc 823c
00000240: 2c53 683b 50e6 e53c 8b01 4b3c df07 903c
00000250: d251 33bc f881 0f3b e662 593c ce0c d1bc
00000260: f67f a4bc fafa 873b 8f77 7abc 0aa7 af3c
00000270: 5f95 5f3c 4b38 5ebc 0720 b8bc 4a0a 693c
00000280: 3cba 63bc 07bd 1b3c 3b98 e23b a479 ed3b
00000290: 975a d43c 88a7 563c 60fd 32bc a82b 843b
000002a0: baf9 ff3c b089 5e3c aa8e 423c 5b91 673c
000002b0: 782e cbbc 1b5b bd3b 6ef1 39bc 962d b63a
000002c0: eef1 adbc 8695 c13c cbf0 bc3a 827b 84ba
000002d0: 2a08 b33c 4e4d 01bb 0a4d 933b 97fe 8a3c
000002e0: 6d54 903c c415 1ebc 4817 69bc df0f 863c
000002f0: c6fd e83b fe4b bd3c 9ce5 95bc da6e 8d3c
00000300: a6a7 a33b cbcd 9fbc 9f13 ae3c 174c 1dbc
00000310: 2370 b63a c390 a5ba 5427 713c 1ffc 913c
00000320: 7bda c23b a6a0 d73b 886e 883c 0201 fdbc
00000330: dfd2 0c3c 4f05 b3bb ea6f f7bc b7ff 313c
00000340: d270 64b8 d0ff 03bd ac4a 373c 27e2 31bc
00000350: e767 ffba e798 82ba 0a2a c63c 27e9 c93c
00000360: eacc 3a3c 484c c13c d85f 80bb 1e7a 983a
00000370: 28cc 6bbc 4f4a eebb a604 bb3b e24f ec3b
00000380: e086 243c 3ac3 503b 5783 adbc 1b67 9b3a
00000390: 7bed aabc d3f4 b13b f318 033c 8af3 4fbc
000003a0: 5be9 f0bb 1256 663b 3702 523c be5f 843c
000003b0: 5492 953c a238 d63c 7f20 35bc beaa b23c
000003c0: 4e07 b53a 98d4 84bc e7ee a3bc 0c45 a6bb
000003d0: 872c a23c a4a1 423c a205 70bc 92c5 393c
000003e0: aa38 2cbc 106a bfbc a6e7 543a 6c57 4a3b
000003f0: e613 32bb 030d c63b b31b a83c 4333 953c
-0.0300225 0.0024410798 0.0065238317 -0.016701113 -0.020605586 -0.0045296894 0.023168627 -0.012816219
0.0018473467 -0.006846413 -0.016150802 -0.005468512 0.0116256345 -0.0072048474 -0.0038422332 0.028450582
0.017501643 -0.038958725 -0.021131672 -0.020607293 -0.010984277 0.024818238 0.017285109 0.01232162
-0.035435755 -0.015898043 -0.0011774135 -0.010638278 0.0013335734 0.011858485 0.011814321 -0.01987217
0.019425215 0.010466463 0.0035368572 0.00492083 -0.002329424 0.026729941 0.008254144 -0.013971588
0.013302498 -0.0050221765 0.008557148 0.0059196 0.003960983 -3.28366e-05 -0.020197388 -0.008727677
-0.025912492 -0.009244148 0.020172313 -0.024536543 -0.019138265 -0.017899903 -0.016665531 0.018224824
0.0102229575 -0.013571973 -0.017737236 0.0039972765 0.0069343476 0.004875933 -0.0048223273 -0.014186616
-0.010340038 0.0024279784 -0.023110405 0.010812896 0.0131343305 -0.0014239436 -0.0029310575 0.019178232
-0.019237649 0.019408207 -0.0040605767 0.025335412 -0.021468103 0.019707337 -0.012062277 0.0040741535
0.006898145 -0.01684154 -0.002676604 0.012483361 0.0017513236 0.026929436 -0.015151739 -0.005888756
-0.02117369 -0.0018762767 0.024202278 0.009334423 0.021738965 0.008404288 -0.011265463 0.021514755
0.0031829868 -0.027763953 -0.013835388 0.020208506 0.010270765 -0.006607392 0.0099507505 0.02706166
0.01287711 -0.017396506 0.021390706 -0.025732215 0.008204701 0.008750096 0.0007192971 0.0014250681
0.032412153 0.0028758342 -0.002489795 0.029401539 -0.025055498 0.00012949994 0.0069689043 0.004516518
-0.019055752 -0.016872533 0.016650882 0.017339993 -0.010848611 -0.008207941 0.0018943648 -0.017131703
-0.026158448 -0.02161309 -0.011054712 -0.00070529187 -0.0020643275 0.022038542 0.0030811783 -0.024271507
0.00052479934 -0.00595214 -0.0022085418 0.013692023 -0.008233483 -0.010117517 0.0023839124 0.0159588
0.0035449965 0.028063923 0.012390505 0.017581878 -0.0109448 0.0021897536 0.013268208 -0.025518801
-0.020080548 0.004149792 -0.015287294 0.021441955 0.013646453 -0.013563226 -0.02247621 0.0142236445
-0.013899382 0.009505517 0.00691512 0.0072471667 0.025922103 0.013101466 -0.010924667 0.0040335245
0.031247009 0.013582632 0.011874834 0.014133777 -0.024802431 0.005778683 -0.011349065 0.0013899084
-0.021233525 0.023630869 0.0014415024 -0.0010107609 0.021854479 -0.0019729915 0.0044952678 0.016967101
0.017618382 -0.009648744 -0.014226742 0.01636499 0.0071103303 0.023107525 -0.018297963 0.017264772
0.0049943505 -0.01950731 0.02124959 -0.009600661 0.0013918917 -0.0012631643 0.014718849 0.017820416
0.005946455 0.00658043 0.016654268 -0.03088427 0.008595197 -0.0054632793 -0.030204732 0.01086419
-5.4464508e-05 -0.032226384 0.011187237 -0.010857142 -0.0019485921 -0.0009963781 0.024189968 0.024647309
0.011401394 0.023595944 -0.0039176755 0.0011633073 -0.014391936 -0.007272042 0.0057073412 0.007211671
0.010041922 0.0031854645 -0.021180792 0.0011856289 -0.020865193 0.0054307966 0.008001554 -0.012692342
-0.007352037 0.0035146517 0.012817911 0.016158935 0.018258251 0.026150052 -0.011055111 0.021809932
0.0013811381 -0.016214654 -0.020011378 -0.005074149 0.019796623 0.011879358 -0.0146497805 0.011338608
-0.010511557 -0.023366004 0.00081216765 0.0030874861 -0.0027172505 0.0060440316 0.02052102 0.01821292

MatMul_1 f4 [32, 32]
00000000: 5ff4 08be c7c6 633c 0883 ff3c b07c e43c
00000010: e123 8d3d cf70 1abc a8d8 e9bb 7071 6a3d
00000020: eaef 3cbc d2ff 0ebe 32ef bbbd 86e1 813d
00000030: c3a7 c7bd d4b3 25be 9225 fcbd 14e1 9b3c
00000040: 1b4f 093e 97e2 33bd 3cca a63d 70a8 db3d
00000050: 8849 36be 0a9e 8fbd 22fc e7bd 9328 4dbd
00000060: 5ae8 d9bc 27fc aebd 3023 15bc 9816 193e
00000070: a6bd bcbd ecdb c13c 4344 cfbd 46bf bd3d
00000080: 24da 663b 52f8 78bd 9261 ea3d e0d1 c03d
00000090: 0940 1fbe b119 90bd 73b4 d1bd fe61 68bd
000000a0: c6e8 14bd 8a39 103e 72e6 023e 58dd 813d
000000b0: 4b51 b7bd a337 3f3e 8024 9bbd 9e9a fcbd
000000c0: a4f6 03bd 67d3 f73a ac43 8f3d 2bf4 00be
000000d0: fb83 02bd e462 a93d 1a22 66bc 64f3 083e
000000e0: 0439 c8bd cc55 27bb b0b5 e9bd dc9d c0bd
000000f0: a7e0 8abc 3bbe 48be 6327 223d 1ef7 b3bc
00000100: e16f 92bd 73ac 443d 15da 003e 17c5 d03d
00000110: f3a3 f2bd 0be0 913c e0f6 813d 92a4 d3bd
00000120: d37c 11be 5ba7 4cbe dff5 c9bc b693 bc3d
00000130: 6c86 083e 73de 6bbd 285c c83a 05f1 283e
00000140: 242c 7b3d 6e5e 18bc f420 8f3c 84fc f93d
00000150: bc9b 693d 47b1 0cbe e058 34bd 404d 87bc
00000160: 0e8a df3c 78ad 5cbd 766e a43d dce8 123e
00000170: 20c1 d7bd d395 06bd 50fa a4bd 7b2f 33bd
00000180: 7c66 273d b8b2 5d37 982a ebbd 46c1 e63b
00000190: f6c4 c3bd dc74 7b3d c092 de3c bf6b 9ebc
000001a0: c36f acbc 9490 12bd 52d9 d93d c67a d73d
000001b0: ce1c 133d 7338 863d abcc 4abd 0ac8 06be
000001c0: 8838 fabc 9563 9cbd af21 3bbe 5a51 053d
000001d0: e4a8 393e dd25 253e 101f 96bc 30a5 b7bd
000001e0: 8200 12be f24e 103e ec03 313d 9aba 8c3d
000001f0: de44 aebd cc2a ae3c 7155 0e3e 6ba5 abbd
00000200: 2096 523c cad6 88bd cb2e ae3d cf2a 03be
00000210: 6621 fa3d 77fe 06bc 40f3 38be 5fd2 d3bc
00000220: 2656 303c e6ca eb3d ea61 223e 22ca cebd
00000230: 94e6 983d 7343 3ebe a310 b43d 861a bcbd
00000240: ecb0 a43d f29b 40bd a713 2abe 9626 a7bc
00000250: 4cd3 a4bc c450 583e a394 303d 8cb8 a43d
00000260: 669c da3d fe1d 60bd c25e db3c 5d1e 293e
00000270: de85 bf3d 0eec c93d 9b7c 423c 6694 5a3d
00000280: 3abb f1bd 7796 e33d 53fd 72bd 9e42 ca3b
00000290: 1a4d 793d 0cae 063e bcf2 3f3e 3c0b 3e3c
000002a0: ba4d a23d 3854 2abd c176 a7bd 2483 ff3d
000002b0: 6c76 fabd c75e b6bb a9ae 08be 10b5 70bc
000002c0: 42b5 d53d 4bff 0b3e de76 e3bc c4a3 65bd
000002d0: 9327 96bd d965 90bc 6c36 20be aae8 21be
000002e0: 42e9 c63d 3c33 e03d 4219 c4bd f434 26be
000002f0: ac1a 26bd 5625 263d 7664 993c bbb1 263e
00000300: c8c9 2fbe 88ba d2bd 3b70 4b3d 2e55 e73d
00000310: def2 0d3e e849 d6bd 3c7a e83b 5c59 c8bd
00000320: 1b97 b43d cb53 01bd ec40 263e ff0c f9bb
00000330: 24cf 903c ea2c 343d 6cfd 683b 0595 0f3d
00000340: f230 01bc 7710 ce3c f0a3 1fbe 8beb 5bbb
00000350: d37e 233e 98b9 233e 93a4 edbc b4c2 283d
00000360: 768f 363d 8c6e b43d 13b5 2dbd fc3b 653d
00000370: f740 073e 29ff 203e fef2 a13c 8732 e9bd
00000380: a051 aebd 50fd 0d3e ba32 eabc fecb 80bd
00000390: cff9 353e 861c 07be e04f 7dbd c00f 223e
000003a0: 6014 c9bd bba5 afbd e0ec 453d bf29 a8bd
000003b0: c64f 463d 4838 893d 9dc9 8bbd cb5b 54bd
000003c0: 36bd 663d a27c cb3d 14a1 d3bd 3112 aabd
000003d0: f0c6 c9bd 6853 d6bd 5c8a 09be 0e8c 023e
000003e0: 1b94 babd 7354 dcbd 4392 2a3e 2cc6 77bd
000003f0: a252 3bbd 333d c3bd 3e67 aabd b881 4d3d
-0.1337447 0.013902373 0.03119041 0.027891487 0.06891609 -0.00942631 -0.007136423 0.05723709
-0.011531809 -0.13964775 -0.09176482 0.06341843 -0.09748795 -0.1618188 -0.123118535 0.019028224
0.13409083 -0.043917265 0.08144042 0.10725486 -0.17801487 -0.070125654 -0.113273874 -0.050087523
-0.026600052 -0.08544188 -0.009102628 0.14950025 -0.0921586 0.023664437 -0.10120442 0.09264998
0.0035225237 -0.06078369 0.11444391 0.094150305 -0.15551771 -0.0703615 -0.10239496 -0.056734078
-0.036354803 0.1408445 0.1278322 0.06341046 -0.08951052 0.18673567 -0.07575321 -0.123341784
-0.032217637 0.0018907607 0.06995329 -0.12593143 -0.031864148 0.08270815 -0.014046216 0.13374096
-0.097765 -0.0025533317 -0.11411607 -0.09405109 -0.016952826 -0.19603817 0.039588343 -0.02196842
-0.071502455 0.048016023 0.12583192 0.10193842 -0.11847677 0.017807027 0.06345916 -0.10334124
-0.14207773 -0.19985716 -0.024653373 0.09207861 0.13332528 -0.05758519 0.0015286254 0.16498192
0.061321393 -0.009299858 0.017471768 0.12206367 0.057033285 -0.13739501 -0.04403007 -0.016516328
0.02728751 -0.05387637 0.08028881 0.14346641 -0.105348825 -0.032857727 -0.08055556 -0.043746453
0.04086922 1.3214238e-05 -0.114827335 0.007042083 -0.09559052 0.061390743 0.027169585 -0.019338487
-0.021049386 -0.03578241 0.10637154 0.10521464 0.035916142 0.065537356 -0.049511593 -0.13162246
-0.030544534 -0.07636181 -0.18274568 0.032548286 0.18130833 0.16127725 -0.018325359 -0.08967054
-0.14258006 0.14092615 0.04321663 0.06871529 -0.08509229 0.021260642 0.13899781 -0.0838116
0.012853175 -0.06681593 0.08505019 -0.12809299 0.122134015 -0.00823938 -0.18061543 -0.025857149
0.010762727 0.11513309 0.15857664 -0.100971475 0.07465854 -0.18580417 0.08792236 -0.091847464
0.08041558 -0.04702372 -0.1660906 -0.020404141 -0.020120285 0.2112456 0.0431105 0.08043012
0.10674362 -0.054716103 0.026778582 0.16515489 0.09351705 0.09859477 0.011870529 0.05336418
-0.11803289 0.11112683 -0.05932362 0.006172492 0.060864545 0.13152331 0.1874494 0.011599358
0.079249814 -0.041584224 -0.081769474 0.12476185 -0.122296184 -0.0055654976 -0.13347878 -0.014691606
0.10434963 0.13671605 -0.027766641 -0.056064382 -0.07331767 -0.01762669 -0.1564576 -0.1581141
0.09712459 0.10947272 -0.0957513 -0.16231138 -0.04055278 0.04056295 0.018724661 0.16278736
-0.17166817 -0.10289484 0.04966758 0.112955436 0.13862178 -0.10463315 0.0070946496 -0.09782669
0.088178836 -0.03157405 0.16235703 -0.007600426 0.017676897 0.043988146 0.0035551442 0.035054225
-0.007885205 0.025154335 -0.15589881 -0.0033557143 0.15966348 0.15988767 -0.02900914 0.04120131
0.04457041 0.08810148 -0.042409014 0.05596541 0.13208376 0.15722336 0.019769188 -0.113865905
-0.085116625 0.13866162 -0.028588641 -0.062889084 0.17771076 -0.13194475 -0.061843753 0.1582632
-0.09818339 -0.085765325 0.048321605 -0.082110874 0.04841592 0.06700188 -0.06825564 -0.051845353
0.05633279 0.09935881 -0.103334576 -0.08304251 -0.098523974 -0.10465127 -0.13431686 0.12748739
-0.0911028 -0.10758295 0.16657357 -0.060491726 -0.0457331 -0.09533157 -0.08320473 0.050172538

MatMul_2 f4 [1, 32]
00000000: a8c9 e8bc f39d a3be 6711 cc3d ad96 063d
00000010: 1ca7 4b3e 9a39 a2be b043 283e 4cd6 953d
00000020: eb29 3b3e ca7d bbbe 4ab0 4d3e 32d3 1e3e
00000030: d75a 6c3d d419 933d 16b3 c7be 78e1 5a3e
00000040: 6992 a83d 1ab4 403d a7c7 c93d 9a35 05be
00000050: 9344 c4be 6e19 103d 346b d5be 1c47 cc3d
00000060: 7aba 0dbe 405f 103d d0d4 2b3e 72b0 4c3e
00000070: 4f9d 153d 3b3a 6a3d de03 acbe a675 d23d
-0.02841647 -0.31956443 0.09964257 0.03285854 0.19887966 -0.31684572 0.1643207 0.073162645
0.18277709 -0.36619407 0.2008678 0.15510252 0.05770382 0.07182661 -0.3900382 0.21375072
0.082310505 0.04704676 0.09852534 -0.13008729 -0.38333568 0.0351805 -0.41683352 0.099745005
-0.13840666 0.035247087 0.167804 0.19989184 0.036526974 0.05718444 -0.335967 0.10276346
